models/xlsr.onnx (onnx, 117676 bytes, 22 tensors)

model.residual.bias f4 [16]
0	0x3dfa2248	0.1221357
1	0x3d3ba98c	0.04581599
2	0x3db00725	0.08595113
3	0x3d786010	0.060638487
4	0xbd6ade08	-0.05734065
5	0x3d4b36b3	0.049612712
6	0x3e29cfc7	0.16583167
7	0x3d69a903	0.057045948
8	0x3d62953e	0.05531811
9	0x3dae969b	0.085248195
10	0x3d95fefa	0.073240235
11	0x3cb3c68b	0.021945259
12	0x3e0230d9	0.12713946
13	0x3d85f526	0.06540899
14	0x3df7437e	0.1207342
15	0xbd882b9f	-0.06648945

model.residual.weight f4 [16, 3, 3, 3]
0	0xbe0ab61a	-0.13546029
1	0xbd64dbf5	-0.05587383
2	0x3e154caf	0.14580034
3	0xbe656f5f	-0.22405766
4	0xbed614b2	-0.41812664
5	0xbcf1eb8a	-0.02953126
6	0x3d31e15e	0.043427818
7	0x3e2ab01f	0.16668747
8	0x3e34d5d8	0.176597
9	0x3ddfee43	0.10934117
10	0xbb26bac0	-0.0025440902
11	0x3be6b1e4	0.007040249
12	0xbe22ae8f	-0.15886901
13	0x3ecfa276	0.40553635
14	0x3dca3b17	0.09874552
15	0x3ca50e07	0.02014829
16	0xbe31581e	-0.1731877
17	0x3d3cdedc	0.046110973
18	0x3dc834c9	0.09775693
19	0x3cfa0a74	0.030522563
20	0x3d10be85	0.035337944
21	0xbd62127f	-0.05519342
22	0xbe299eff	-0.16564558
23	0x3e2f8eb3	0.17144279
24	0xbd8bd966	-0.06828575
25	0xbdb897ca	-0.090133265
26	0xbe40ace8	-0.18815958
27	0xbe235c5b	-0.159532
28	0xbe3e55fd	-0.1858749
29	0xbda1afe8	-0.078948796
30	0xbcc41e21	-0.023940148
31	0x3ef2eb71	0.47445253
32	0xbcb9c315	-0.02267603
33	0xbda67f05	-0.08129696
34	0xbe4e62f3	-0.20154934
35	0x3dffa34a	0.12482317
36	0xbe433704	-0.19063956
37	0x3e125a32	0.1429222
38	0xbd247e20	-0.040159345
39	0x3d87e609	0.066356726
40	0x3d98d0cc	0.074617
41	0x3e172074	0.14758474
42	0xbd1e2578	-0.03860995
43	0x3e84311f	0.25818726
44	0xbd2ed121	-0.04267991
45	0x3e1719f3	0.14755993
46	0xbd651254	-0.055925682
47	0xbd082e9d	-0.03324758
48	0x3d19f766	0.037589453
49	0xbd8f64d2	-0.07001652
50	0xbdcc5722	-0.09977557
51	0x3e177d33	0.14793853
52	0xbe8b6432	-0.2722488
53	0xbe144fe9	-0.14483608
54	0x3d2c98fc	0.042138085
55	0x3e549ad1	0.20762183
56	0x3d15d846	0.036583208
57	0x3c2665a0	0.010156065
58	0xbda6728a	-0.08127315
59	0x3e20baa2	0.15696195
60	0xbe2be18e	-0.16785261
61	0x3db939a5	0.09044198
62	0x3d112233	0.035433006
63	0xbb77ee16	-0.003783112
64	0x3c90eb75	0.0176904
65	0xbd8002fd	-0.0625057
66	0xbd0e2056	-0.034698807
67	0x3e6e7687	0.23287402
68	0xbdbefcf2	-0.09325589
69	0x3e18121d	0.1485066
70	0x3e0b7aea	0.13621107
71	0xbe4e8127	-0.20166455
72	0x3c600abc	0.013674434
73	0xbd87a3f5	-0.06623069
74	0xbdbf3c2e	-0.0933765
75	0xbd369a87	-0.044580963
76	0xbf093a3b	-0.5360448
77	0x3d9d29a7	0.0767396
78	0x3d2c760d	0.04210477
79	0xbe2f22cb	-0.17103116
80	0x3ccc2881	0.024921658
81	0xbc1a14af	-0.009404345
82	0x3d52b4b1	0.051441852
83	0x3cc5e1a9	0.024155455
84	0x3e42f4fe	0.1903877
85	0xbe824dec	-0.25450075
86	0x3e7309be	0.23734185
87	0xbda6d1bf	-0.08145475
88	0xbdb86fd7	-0.09005707
89	0xbd2b1d4d	-0.04177599
90	0xbcc7828f	-0.024354247
91	0xbb60ebea	-0.0034320303
92	0x3da979a7	0.082751565
93	0x3b8945bd	0.0041892217
94	0xbea844c1	-0.32864955
95	0x3ca7e993	0.020497119
96	0xbd6cd1a7	-0.057817128
97	0xbd1537f0	-0.0364303
98	0x3dc0715b	0.09396621
99	0x3e325868	0.17416537
100	0x3e7b2d0e	0.24528906
101	0x3dd51203	0.10403826
102	0xbc15fceb	-0.009154539
103	0xbef9d5a0	-0.48795795
104	0x3e13eab4	0.14445001
105	0xbd4e3692	-0.05034501
106	0x3e0d7b1c	0.13816494
107	0xbe52ed47	-0.20598327
108	0x3d9d7241	0.07687808
109	0x3d4def19	0.05027685
110	0xbde0da44	-0.10979131
111	0x3d32e2ec	0.04367344
112	0x3e95470c	0.29155767
113	0x3d87f755	0.06638972
114	0x3d0ecffd	0.03486632
115	0xbd86da9b	-0.065846644
116	0xbd4b3675	-0.04961248
117	0x3aa4fa78	0.0012586853
118	0x3d961da6	0.07329874
119	0x3d622d38	0.055218905
120	0x3bcf0aed	0.006318441
121	0x3f16bd34	0.5888245
122	0xbdfbcba8	-0.12294704
123	0x3d5a9b81	0.053370956
124	0x3d461bb4	0.048366264
125	0x3dd1c646	0.10242896
126	0xbdae0faf	-0.08499085
127	0x3dfb3683	0.12266257
128	0x3d0f5760	0.034995437
129	0x3dd111e4	0.102084905
130	0x3e9436c7	0.28948042
131	0xbe4c3bf1	-0.19944741
132	0xbd81f8c5	-0.06346277
133	0xbe1b4f17	-0.15166889
134	0xbb34c4f9	-0.0027583225
135	0xbe67a40d	-0.22621174
136	0xbe206ba0	-0.15666056
137	0xbe1bd866	-0.15219268
138	0x3de79808	0.113082945
139	0xbd6bc424	-0.0575601
140	0xbd5efe12	-0.05444152
141	0x3c22abbb	0.009928639
142	0xbd62f659	-0.055410717
143	0xbbb8d3ba	-0.005640474
144	0xbd989e53	-0.07452073
145	0x3b751be0	0.0037400648
146	0xbde568e4	-0.11201647
147	0xbde7614d	-0.112978555
148	0x3e9eb2a5	0.3099567
149	0x3cd18d67	0.025580121
150	0x3cecdbf7	0.028913481
151	0x3da42fdc	0.08016941
152	0xbd62985c	-0.055321082
153	0xbdd3c9c5	-0.10341219
154	0x3e79611b	0.24353449
155	0x3e259823	0.16171317
156	0x3cb5d738	0.02219735
157	0xbe107942	-0.14108756
158	0x3dddda7e	0.1083269
159	0x3d8aad19	0.06771297
160	0x3e729b29	0.23692001
161	0xbccf1364	-0.0252778
162	0x3c4299fa	0.011877531
163	0x3c80d16e	0.015724864
164	0xbe4f26a3	-0.20229582
165	0x3e5588aa	0.20852914
166	0xbdd9be58	-0.10632008
167	0x3db4ae24	0.08822277
168	0x3e0df649	0.13863482
169	0x3d902690	0.07038605
170	0xbe2fc03f	-0.1716318
171	0xbd8cbe2e	-0.068722114
172	0x3e09ec21	0.13468982
173	0x3dbdafc1	0.09262038
174	0xbdbe6aa3	-0.09297683
175	0xbed53d82	-0.4164849
176	0xbe6dd418	-0.23225439
177	0xbd75fd93	-0.06005628
178	0x3de3a058	0.111145675
179	0xbd320c15	-0.043468554
180	0xbca8b149	-0.020592349
181	0x3a904b81	0.001100883
182	0xbd1d89e9	-0.0384616
183	0xbde9f373	-0.114233874
184	0xbb387b05	-0.0028149497
185	0x3e24533d	0.16047378
186	0x3e38cc9a	0.180468
187	0xbded69a4	-0.11592415
188	0x3e0bad0e	0.13640234
189	0xbdd94a4d	-0.10609875
190	0x3e141a9c	0.14463276
191	0xbd4d899a	-0.050180055
192	0x3e4a84b3	0.19777183
193	0xbeb8edc6	-0.36118907
194	0xbc6645b1	-0.014054702
195	0x3e0b33ff	0.13594054
196	0xbddc9500	-0.10770607
197	0x3e1e1cd4	0.15440685
198	0xbc87a7d9	-0.016559528
199	0xbe099ad1	-0.13437964
200	0xbd6387f1	-0.055549566
201	0x3ce8e268	0.028428271
202	0xbe1c60b9	-0.15271272
203	0xbcd76808	-0.026294723
204	0x3c47f3f3	0.012204158
205	0x3ddaa19b	0.10675355
206	0xbdfded9c	-0.12398836
207	0x3db753b6	0.089515135
208	0x3e224fe2	0.15850785
209	0xbdc4306f	-0.095795505
210	0x3e79df31	0.24401547
211	0x3e1a1b90	0.15049577
212	0xbe65a838	-0.22427452
213	0x3d6c57eb	0.057701033
214	0xbd8bd925	-0.068285264
215	0x3c1477a2	0.009061726
216	0x3e0c8804	0.13723761
217	0xbe32c21f	-0.17456864
218	0x3ca91560	0.020640075
219	0xbcc74a45	-0.024327407
220	0x3eb5a7b8	0.35479522
221	0x3dc531b6	0.09628622
222	0x3e1c7082	0.15277293
223	0xbe8c6e42	-0.2742787
224	0xbc2e94c7	-0.0106555885
225	0x3dbcae12	0.09212889
226	0xbe3fd0bf	-0.18731974
227	0x3c907bde	0.01763719
228	0x3d3808a0	0.0449301
229	0x3ddadc35	0.106865324
230	0xbe8784db	-0.26468548
231	0xbde1c48f	-0.11023819
232	0xbd618bea	-0.055065073
233	0xbcfb3ce8	-0.03066869
234	0xbcdf6334	-0.027268983
235	0x3d327176	0.043565236
236	0xbd003bf6	-0.031307183
237	0x3d1f3837	0.03887197
238	0xbee78f72	-0.45226628
239	0x3e1f70bc	0.15570349
240	0xbc3227e5	-0.010873769
241	0x3d1b49ab	0.037912052
242	0x3d022ae8	0.0317792
243	0x3e2acc61	0.16679527
244	0xbd880217	-0.066410236
245	0xbd19bc1e	-0.03753292
246	0xbd9142aa	-0.07092793
247	0xbe33ad3b	-0.17546551
248	0xbe335e5f	-0.17516468
249	0x3d0ba70b	0.03409485
250	0xbbf2fad8	-0.007415157
251	0xbdb6033e	-0.08887337
252	0xbe1df94f	-0.15427135
253	0x3e48166e	0.19539806
254	0xbcde484e	-0.027134087
255	0xbe3df203	-0.18549351

model.cnn.0.bias f4 [32]
0	0x39f86377	0.00047376353
1	0xbb9061f4	-0.004406208
2	0x3d467948	0.048455507
3	0xbd2052ac	-0.039141342
4	0x3d775197	0.060380545
5	0x3e00f3b0	0.1259296
6	0x3f0292f2	0.5100547
7	0x3cf7b308	0.030236736
8	0x3e7cbb95	0.24680932
9	0x3e7052b8	0.23469055
10	0xbe82805c	-0.25488555
11	0x3e27e8e8	0.1639744
12	0x3e68c96e	0.2273309
13	0xbbb77da7	-0.0055996957
14	0xbc23e56e	-0.010003431
15	0x3e1241b5	0.14282878
16	0xbd93e6f4	-0.07221785
17	0x3e484629	0.19558014
18	0x3d23d1c9	0.03999499
19	0xba896b76	-0.0010484296
20	0x3e05a796	0.1305221
21	0x3e9e63ce	0.3093552
22	0x3e2099b4	0.15683633
23	0x3b7271f1	0.0036994184
24	0x3c921c02	0.01783562
25	0x3f1359d5	0.5755895
26	0x3bab9aed	0.0052369745
27	0xbe083d0f	-0.13304542
28	0xbbb9f1ca	-0.0056745755
29	0xbef84c0b	-0.48495516
30	0x3aef5c53	0.0018261768
31	0x3d5c017c	0.053712353

model.cnn.0.weight f4 [32, 3, 3, 3]
0	0x3eeaf47c	0.45889652
1	0x3de653ed	0.11246476
2	0xbd874f9e	-0.06606983
3	0x3e8d7d73	0.27634773
4	0xbf504225	-0.8135093
5	0x3d73a9ec	0.059488222
6	0x3d134361	0.03595293
7	0xbdf0ab14	-0.117513806
8	0x3d850ec7	0.06496959
9	0xbc4cdc40	-0.012503684
10	0x3c5226d2	0.012826638
11	0x3c951801	0.018199923
12	0x3d2e357e	0.042531483
13	0xbce86448	-0.02836813
14	0xbc868a36	-0.016423326
15	0x3c1868cb	0.009302328
16	0xbcd81844	-0.026378758
17	0x3c306720	0.010766774
18	0xbee33761	-0.44378188
19	0xbdfc8986	-0.12330918
20	0x3d6467d3	0.055763077
21	0xbea79a79	-0.3273504
22	0x3f57310e	0.84059227
23	0xbd4b971f	-0.049704667
24	0xbd3de05a	-0.046356536
25	0x3e187ee0	0.14892149
26	0xbd968a9f	-0.073506586
27	0xbd80ca11	-0.06288541
28	0xbd75cffb	-0.0600128
29	0x3e92418a	0.28565627
30	0x3d3f8580	0.046758175
31	0xbf06a5b0	-0.5259657
32	0x3ec36808	0.38165307
33	0x3d905bb3	0.0704874
34	0xbd85870d	-0.065198995
35	0xbd89703f	-0.06710862
36	0x3c32e2f9	0.010918372
37	0x3d3e4c8f	0.04645973
38	0x3ef7ff2e	0.48436874
39	0xbdd7308c	-0.105073065
40	0xbf3034f5	-0.68830806
41	0x3eac33a7	0.33633158
42	0x3d7815ac	0.060567543
43	0xbd1b617d	-0.03793477
44	0xbda79af3	-0.08183851
45	0xbda20d6d	-0.07912717
46	0xbd950894	-0.07277027
47	0x3e3286a8	0.1743418
48	0x3e037168	0.1283623
49	0xbe8af3b4	-0.27139056
50	0x3dcf4bce	0.101218805
51	0x3cfba773	0.030719494
52	0x3d334014	0.04376228
53	0xbd59dbd3	-0.053188156
54	0xbd6416d8	-0.055685848
55	0xbf024829	-0.5089136
56	0x3c0e7ea2	0.008697184
57	0xbcae6dd5	-0.021292606
58	0x3f08970f	0.533555
59	0x3c939b8e	0.01801851
60	0x3d87746b	0.06614002
61	0xba8a0adc	-0.0010531801
62	0xbce28136	-0.027649503
63	0xbcaab06f	-0.020836083
64	0xbf29de1c	-0.66354537
65	0x3d262290	0.040560305
66	0x3c756ca1	0.014979512
67	0x3f0edaff	0.5580291
68	0x3d01501d	0.031570543
69	0x3c053f9f	0.008132844
70	0x3d9c6fa0	0.07638478
71	0xbd78c53d	-0.060734976
72	0xbd039c2f	-0.03213137
73	0xbf21afeb	-0.63159055
74	0x3dc9ffdc	0.098632544
75	0x3d5d5e61	0.054045085
76	0x3f23faf9	0.6405483
77	0xbd6b01f1	-0.0573749
78	0xbc139e23	-0.009009871
79	0xbc5ef1f1	-0.013607488
80	0xbcc3723c	-0.023858182
81	0xbced20cf	-0.028946308
82	0x3c8416ae	0.016124096
83	0xbd00c85c	-0.031441078
84	0xbc7187e7	-0.014741874
85	0x3b9eb9f7	0.004843946
86	0xba4ac675	-0.0007735261
87	0xbba7f198	-0.0051252358
88	0x3ccc8ad9	0.024968551
89	0xbc1206a3	-0.008912715
90	0x3d9bc4f8	0.07605928
91	0xbe0dcf52	-0.13848618
92	0x3d979df5	0.07403175
93	0xbdcb19a9	-0.09917004
94	0x3e533a86	0.20627794
95	0xbddf0f6a	-0.10891612
96	0x3d2ca86f	0.04215282
97	0xbde3b61e	-0.111187205
98	0x3d75bbda	0.059993602
99	0xbd083545	-0.033253927
100	0xbcf99e47	-0.03047098
101	0xbcca49df	-0.024693428
102	0x3c831369	0.016000466
103	0x3faea167	1.3643006
104	0x3d1c326a	0.038134016
105	0xbcd36c82	-0.025808576
106	0x3c93c89c	0.018039994
107	0xbd4aee45	-0.049543638
108	0xbd47e449	-0.048801694
109	0xbca688b7	-0.020328863
110	0x3d2188a8	0.039436966
111	0x3d945b64	0.07243994
112	0x3f02d98e	0.5111321
113	0xbf0e4ab7	-0.55582756
114	0xbc8891ff	-0.016671179
115	0x3dc30c68	0.09523851
116	0xbd899874	-0.06718531
117	0xbd25cac5	-0.04047658
118	0xbc1c41bb	-0.009537156
119	0x3d165343	0.0367005
120	0x3d96f164	0.0737026
121	0x3f1b6261	0.6069699
122	0xbf2ee953	-0.68324775
123	0xbc60a164	-0.0137103535
124	0x3dc8a2b3	0.097966574
125	0xbdbebdd9	-0.09313554
126	0xbc9772f0	-0.018487424
127	0xbcf002ed	-0.02929827
128	0x3ce29002	0.027656559
129	0xba10e7b9	-0.00055276934
130	0x3ee5c648	0.4487784
131	0xbec6c467	-0.38821718
132	0xbd0ab848	-0.03386715
133	0xbbc5d45d	-0.0060372786
134	0x3d1d0b6a	0.038340963
135	0x3da296d6	0.07938926
136	0x3cbc1248	0.022957936
137	0xbdaf20b0	-0.085511565
138	0xbe032d11	-0.1281016
139	0xbe810a48	-0.25203156
140	0xbd5d67eb	-0.054054182
141	0x3ea50cb7	0.32236263
142	0x3cf762ee	0.03019854
143	0xbc52ebb7	-0.012873582
144	0x3c29d956	0.010366758
145	0xbd6292b0	-0.055315673
146	0x3dae962d	0.085247375
147	0xbdaa781c	-0.0832369
148	0xbe7646d4	-0.24050456
149	0xbe31ce64	-0.17363888
150	0x3ee04e54	0.4380976
151	0xbd4924bb	-0.049107295
152	0x3dbaffa8	0.09130794
153	0xbdb5488c	-0.08851728
154	0xbcc37cef	-0.023863284
155	0x3de5aa35	0.11214105
156	0xbc5fbcf7	-0.013655893
157	0xbe85108b	-0.25989184
158	0xbd0941ad	-0.0335099
159	0x3e6b1c4d	0.22960015
160	0x3dbe8d85	0.093043365
161	0x3d085ed5	0.033293564
162	0xbe02a3a0	-0.1275773
163	0x3d0a2858	0.03372988
164	0x3e502e20	0.20330095
165	0xbd9f0b6c	-0.077658504
166	0x3dcf71d8	0.10129136
167	0x3da145e0	0.07874656
168	0x3c9685b9	0.01837431
169	0xbd8c9bb1	-0.06865633
170	0x3ba59d64	0.005054163
171	0x3dc536a8	0.096295655
172	0x3df2dcf1	0.118585475
173	0x3e27e8b8	0.16397369
174	0x3d47eb7f	0.04880857
175	0xbebd4879	-0.36969355
176	0x3d1bbe8d	0.03802352
177	0x3c2b9029	0.010471382
178	0xbd80a38a	-0.062811926
179	0xbd6edfc7	-0.05831888
180	0x3e21c8c2	0.1579924
181	0x3e3421be	0.17590997
182	0xbd39fb1b	-0.04540549
183	0x3cf57508	0.029963031
184	0xbed52d43	-0.41636094
185	0xbe00472e	-0.12527153
186	0x3d0c4431	0.03424472
187	0x3e0cacaf	0.13737749
188	0xbc0568db	-0.008142675
189	0xbcbeb6cf	-0.02328053
190	0xbe365ab0	-0.17808032
191	0xb9dbb821	-0.00041908122
192	0x3e05a462	0.13050988
193	0x3e81d6d9	0.25359228
194	0x3bd616dd	0.0065334872
195	0x3dc95ae9	0.09831793
196	0xbe26ff46	-0.16308317
197	0x3dee9001	0.1164856
198	0xbc679875	-0.01413547
199	0x3c20c773	0.009813177
200	0xbbff216f	-0.007785968
201	0x3cb9d60e	0.022685077
202	0x3e6f1add	0.23350091
203	0x3c5ebd91	0.013595001
204	0x3c8f210f	0.017471818
205	0xbd9f2cb5	-0.07772199
206	0x3d48ee51	0.0490554
207	0x3dc177dd	0.0944669
208	0x3da7dc79	0.08196349
209	0x3ce403a2	0.027833764
210	0xbdbcec82	-0.09224798
211	0x3f435816	0.76306283
212	0xbd0b0cf5	-0.033947904
213	0xbd8477ab	-0.06468137
214	0x3e7aeee5	0.24505194
215	0xbdd8cb65	-0.105856694
216	0xbd71c31d	-0.059023965
217	0xbda02fda	-0.07821627
218	0x3dbc9fb0	0.092101455
219	0xbd1df252	-0.038561173
220	0x3f2df4fa	0.6795193
221	0x3e8367e1	0.2566519
222	0xbd99b8c4	-0.07505944
223	0x3c9b5891	0.01896313
224	0xbd35aac2	-0.0443523
225	0xbd868fab	-0.06570371
226	0x3db174e8	0.08664876
227	0xbd0a9d07	-0.03384116
228	0xbdb1d505	-0.086832084
229	0x3e861f6f	0.26195857
230	0x3e9d21d1	0.30689862
231	0xbe0dba5d	-0.13840623
232	0xbd0a557c	-0.03377293
233	0xbd306e86	-0.043074153
234	0x3d8743a2	0.06604697
235	0x3d6444f8	0.055729836
236	0xbcf603a7	-0.030031038
237	0x3d3b7ee8	0.045775324
238	0xbe9a7c6f	-0.3017306
239	0x3e08f716	0.13375506
240	0x3d8c769b	0.0685856
241	0xbe404555	-0.18776448
242	0xbbeb4f43	-0.0071810796
243	0x3e7a436c	0.24439782
244	0x3c23f41f	0.0100069335
245	0xbd627815	-0.0552903
246	0x3d57d379	0.05269191
247	0x3e9fe42c	0.3122877
248	0xbe6a478a	-0.22878852
249	0x3d281be9	0.041042242
250	0xbd9e5b74	-0.07732287
251	0xbdbb2bd3	-0.09139218
252	0x3de24e3a	0.11050077
253	0xbd218620	-0.039434552
254	0xbde36a31	-0.11104239
255	0xbe469ce0	-0.1939578

model.cnn.2.bias f4 [32]
0	0x3dbf3e67	0.09338074
1	0x3dcdc024	0.100464135
2	0xbe459b73	-0.1929758
3	0x3e3f6bd7	0.18693481
4	0xbe196652	-0.14980438
5	0xbe35b450	-0.17744565
6	0xbda251d2	-0.07925762
7	0xbe16ec52	-0.14738587
8	0xbe7d8c6e	-0.24760601
9	0x3da43543	0.08017971
10	0x3e78fa96	0.24314341
11	0x3db5ff46	0.0888658
12	0x3e38162f	0.17977212
13	0xbeaba341	-0.3352299
14	0xbd127461	-0.03575552
15	0xbcf21a2b	-0.029553493
16	0xbcaece2f	-0.02133855
17	0xbd503931	-0.050835792
18	0xbc8b7443	-0.017023211
19	0xbc26677e	-0.01015651
20	0xbd86eb8c	-0.06587896
21	0xbc37c235	-0.011215736
22	0xbd400176	-0.046876393
23	0xbdbab67c	-0.091168374
24	0x3da69765	0.08134345
25	0x3da5d9b3	0.080981635
26	0x3d63a70c	0.05557923
27	0xbd163dae	-0.036679916
28	0xbaf8dd44	-0.0018986841
29	0x3e6eccc1	0.23320295
30	0x3e49484b	0.19656484
31	0xbdc49ac8	-0.09599835

model.cnn.2.weight f4 [32, 32, 1, 1]
0	0xbe0c4985	-0.1369992
1	0x3d5c0608	0.05371669
2	0x3f3fc334	0.7490723
3	0x3dfa7cb2	0.12230815
4	0x3d226ecb	0.03965644
5	0xbd9e55ed	-0.07731233
6	0xbd8da291	-0.06915773
7	0xbedec29e	-0.43507856
8	0x3ddd65ea	0.10810454
9	0xbd40fad5	-0.047114212
10	0x3dc78a1e	0.09743141
11	0x3ea08193	0.31348857
12	0xbe3136d2	-0.17306069
13	0x3e6edfe2	0.23327592
14	0xbe2e0775	-0.16995032
15	0xbddfa28a	-0.10919674
16	0xbdd495e0	-0.10380149
17	0x3d2678e0	0.04064262
18	0xbda851d4	-0.082187325
19	0x3f7bb56d	0.9832371
20	0xbea59df0	-0.3234706
21	0x3d0705e4	0.032964602
22	0x3c361f5a	0.011115873
23	0x3ee92dd5	0.4554278
24	0xbdcbc6ad	-0.09950004
25	0x3dbd9e9a	0.092587665
26	0xbbbf7301	-0.005842567
27	0x3b974c1b	0.004617227
28	0x3dd8999d	0.105761744
29	0x3f45aa6d	0.77213174
30	0x3ebf78cf	0.37396857
31	0xbe907b49	-0.2821906
32	0x3e170af9	0.1475028
33	0xbdd09778	-0.1018514
34	0xbe9c53f7	-0.3053281
35	0x3f2c82f2	0.67387307
36	0xbd5f01cb	-0.05444507
37	0x3d8626db	0.0655038
38	0x3f052463	0.52008647
39	0xbece45d9	-0.40287665
40	0x3dc0b88e	0.09410201
41	0xbed25b8d	-0.41085473
42	0x3e3b1a8e	0.18271849
43	0xbd5d58f4	-0.05403991
44	0xbeeb7124	-0.45984757
45	0x3f2f24c5	0.6841548
46	0xbe864817	-0.26226875
47	0xbe4c0907	-0.19925319
48	0x3ee827c2	0.45342833
49	0xbed01023	-0.4063731
50	0x3d60b048	0.054855615
51	0xbd345737	-0.044028487
52	0x3e08602a	0.13317934
53	0xbe130f7a	-0.14361373
54	0x3db6d43e	0.08927201
55	0x3f81c933	1.0139526
56	0xbd4ead12	-0.05045802
57	0x3ea56208	0.32301354
58	0xbe4a0f89	-0.19732489
59	0x3f3d1021	0.73852736
60	0x3e49a788	0.19692814
61	0x3e764997	0.2405151
62	0xbed90b0e	-0.42391247
63	0x3da53376	0.08066456
64	0xbbd0f883	-0.006377281
65	0x3da048ba	0.078263715
66	0xbeaf4a86	-0.34236544
67	0x3cf13b16	0.02944712
68	0x3f6c1993	0.92226523
69	0x3afe5cf4	0.0019406364
70	0x3d521c9a	0.051296808
71	0x3c1d698c	0.009607684
72	0x3df695b6	0.12040274
73	0xbc523b34	-0.012831498
74	0xbf3c174f	-0.73473066
75	0xbe3f7f89	-0.18700995
76	0xbe90b14b	-0.28260264
77	0x3e57a281	0.21058084
78	0x3d9aa4e9	0.07550985
79	0xbd0715c3	-0.032979738
80	0xbc48599f	-0.012228399
81	0x3e45b4d3	0.1930726
82	0x3c89d762	0.016826335
83	0xbe20711c	-0.15668148
84	0xbc4d5b32	-0.01253395
85	0x3d6c4769	0.05768529
86	0x3e067156	0.13129172
87	0x3da1f6a3	0.0790837
88	0x3d836986	0.064166114
89	0x3e52e03d	0.20593353
90	0xbde05795	-0.10954205
91	0x3e250b89	0.16117682
92	0x3d28d73d	0.041220892
93	0x3e7f2278	0.24915493
94	0x3ee74cb4	0.45175707
95	0xbdfa3e51	-0.12218917
96	0x3ee31181	0.44349292
97	0x3e508af9	0.20365514
98	0x3d3b23b4	0.045688346
99	0xbe011f42	-0.1260958
100	0xbe17f56a	-0.14839712
101	0xbea1921a	-0.3155678
102	0xbe141d38	-0.14464271
103	0xbc8eb4e8	-0.017420247
104	0xbe04b20b	-0.12958543
105	0xbdafa784	-0.08576873
106	0x3ed89e9b	0.42308506
107	0x3d6b0b55	0.057383854
108	0x3d3e82dd	0.04651152
109	0xbe8a5306	-0.27016467
110	0xbe3689ae	-0.17825958
111	0x3d63147e	0.055439465
112	0xbc41cd69	-0.011828759
113	0x3dc1b597	0.09458464
114	0xbccfe384	-0.025377043
115	0x3ec96799	0.3933685
116	0xbdb5307c	-0.08847138
117	0xbd5d9f64	-0.054107085
118	0xbe4f0a67	-0.20218812
119	0xbe2ebd04	-0.17064291
120	0x3d711dda	0.05886636
121	0x3d14fe24	0.03637518
122	0x3e4f18b3	0.20224266
123	0xbe171aad	-0.1475627
124	0x3fd4216d	1.6572701
125	0xbb2ecf26	-0.0026673763
126	0x3e7ec459	0.24879588
127	0xbe384508	-0.17995083
128	0xbf91b076	-1.1381977
129	0x3d99e2fc	0.07513997
130	0x3e852311	0.26003316
131	0x3e29d887	0.16586505
132	0x3e2c4da2	0.1682649
133	0xbe142071	-0.144655
134	0xbdb28016	-0.08715837
135	0x3e21be4c	0.15795249
136	0x3e1e5c42	0.15464881
137	0x3da5f120	0.081026316
138	0x3db09a92	0.08623232
139	0x3e52e0ae	0.20593521
140	0xbe309d1b	-0.17247431
141	0xbc9e9cad	-0.019361818
142	0xbe369a9f	-0.17832421
143	0xbcb3535b	-0.021890333
144	0xbc82dd77	-0.015974743
145	0x3db29981	0.08720685
146	0xbe9b3475	-0.3031346
147	0xbe342099	-0.1759056
148	0xbde060e9	-0.10955984
149	0xbe820462	-0.2539397
150	0x3df8c87a	0.12147613
151	0x3cb81c29	0.022474365
152	0xbdf01ce5	-0.11724261
153	0xbe649d36	-0.22325596
154	0x3d43b1a8	0.047776848
155	0x3c13f369	0.0090302015
156	0x3e8da507	0.27664968
157	0xbedb23f5	-0.4280087
158	0x3ec238be	0.37933916
159	0x3e4200ee	0.18945667
160	0x3eadda44	0.33955586
161	0x3e017ffe	0.12646481
162	0x3f384de5	0.7199386
163	0x3df45659	0.11930532
164	0x3f0361b5	0.51320964
165	0x3d90199f	0.07036137
166	0xbdfc39d8	-0.1231572
167	0xbdce4619	-0.10071964
168	0x3e19e7b2	0.15029791
169	0x3db6c861	0.08924938
170	0x3e63c5af	0.22243379
171	0xbd9dbe1d	-0.07702277
172	0xbd040a7d	-0.032236565
173	0xbd439e69	-0.047758494
174	0x3d884959	0.06654615
175	0x3e283467	0.1642624
176	0xbdbc2083	-0.091858886
177	0x3e1077b7	0.14108168
178	0x3e517815	0.20455964
179	0x3d4f8be0	0.050670505
180	0x3dbe814d	0.09302006
181	0xbce3e868	-0.02782078
182	0x3c371e88	0.011176713
183	0xbeeef569	-0.46671608
184	0xbe97cf5b	-0.29650387
185	0xbc169a4c	-0.009192061
186	0x3dead42d	0.114662506
187	0xbe7b13db	-0.24519293
188	0x3c09c585	0.008408909
189	0xbed3eb7f	-0.41390607
190	0xbf3ea144	-0.7446482
191	0x3e5c86e6	0.21535835
192	0x3ec5ce9a	0.38634187
193	0x3e79eb20	0.244061
194	0x3e88cbd2	0.26718003
195	0x3e83c414	0.25735533
196	0xbdea44f0	-0.1143893
197	0x3e1f75e5	0.15572317
198	0x3eaa0760	0.33208752
199	0xbcdeb482	-0.027185682
200	0xbe5904e1	-0.21193267
201	0xbd2d939e	-0.042377107
202	0xbecd42cb	-0.40090021
203	0xbba43740	-0.005011469
204	0xbee5beaf	-0.44872043
205	0x3d3af0ca	0.04563979
206	0x3ed1dd06	0.4098894
207	0x3e761494	0.24031287
208	0x3e49cffc	0.19708246
209	0x39c53f0b	0.0003762174
210	0x3e8a1e5f	0.26976296
211	0x3e9d596c	0.30732286
212	0x3d30dc23	0.04317869
213	0xbeb03929	-0.3441861
214	0xbcb3fabc	-0.021970145
215	0xbe6d5153	-0.23175554
216	0x3f198250	0.59964466
217	0xba9b600e	-0.0011854188
218	0x3edf6804	0.43634045
219	0x3d08a16d	0.033357073
220	0xbc753423	-0.014966044
221	0xbe1b3f8f	-0.15160964
222	0x3eb537b8	0.35394073
223	0xbdf30603	-0.11866381
224	0xbf92dd69	-1.1473819
225	0x3b1cbb6c	0.0023915423
226	0x3cb55d7c	0.022139303
227	0x3ee6ffdb	0.45117077
228	0x3df1d512	0.11808218
229	0x3d827f91	0.063719876
230	0x3d5a69a1	0.05332339
231	0xbeb04b1d	-0.34432307
232	0xbea6be2a	-0.3256696
233	0xbdab9279	-0.08377547
234	0xbe9791af	-0.29603335
235	0x3da3127a	0.079625085
236	0x3e5ff715	0.21871598
237	0xbef58d15	-0.479592
238	0x3e92d647	0.28679106
239	0xbe413640	-0.18868351
240	0x3ea84664	0.32866204
241	0xbe72ff1c	-0.23730129
242	0xbed1302f	-0.40857074
243	0xbdb7e666	-0.08979492
244	0x3ebace44	0.36485493
245	0xbecb4a54	-0.39705145
246	0x3edf978b	0.43670306
247	0xbec6869e	-0.3877458
248	0xbd450196	-0.048097216
249	0x3f2cc9e3	0.67495555
250	0x3e84c766	0.2593338
251	0xbc1cc039	-0.009567314
252	0xbe2f2347	-0.17103301
253	0xbe6763b4	-0.22596627
254	0x3de3bc88	0.11119944
255	0xbe825f9e	-0.25463575

model.cnn.3.net.0.bias f4 [32]
0	0x3e605fd7	0.2191156
1	0xbd185ab9	-0.037195895
2	0x3d211f3c	0.039336428
3	0x3e325c6a	0.17418066
4	0x3d08c821	0.033393983
5	0x3e067e59	0.13134135
6	0x3e1529b1	0.14566685
7	0x3e1e8d7f	0.15483664
8	0x3eb570c2	0.3543759
9	0x3c41af2b	0.011821548
10	0xbeb325c3	-0.34989747
11	0x3ecc5105	0.39905563
12	0xbdec4545	-0.115366496
13	0xbea7076d	-0.32622853
14	0x3dbe7f7e	0.09301661
15	0xbf048461	-0.51764494
16	0xbd91264d	-0.070873834
17	0xbe174cdf	-0.14775418
18	0x3f33dcec	0.70258975
19	0x3e93e6b0	0.28886938
20	0x3ed4bf9c	0.41552436
21	0x3ca1e2b2	0.019761417
22	0xbc76736a	-0.015042165
23	0x3e661c90	0.22471833
24	0x3ec32ec9	0.38121632
25	0x3eb7d4eb	0.3590463
26	0xbe3bd3ae	-0.18342468
27	0x3e4f642c	0.20253056
28	0x3cb081f6	0.021546345
29	0x3eba6273	0.36403236
30	0x3c8393aa	0.016061623
31	0x3e5204db	0.20509665

model.cnn.3.net.0.weight f4 [32, 8, 3, 3]
0	0xbdee9061	-0.11648632
1	0x3e6a2a59	0.22867717
2	0x3e392090	0.18078828
3	0xbe72aa58	-0.23697793
4	0x3ea251b4	0.3170296
5	0x3e702e2a	0.2345511
6	0xbdcc8eca	-0.09988172
7	0x3e741173	0.23834781
8	0x3e53bbc2	0.20677093
9	0xbe44aec1	-0.19207288
10	0xbe356bb5	-0.17716868
11	0x3dc46ce8	0.09591085
12	0x3e23ea62	0.16007379
13	0xbf1d0303	-0.6133272
14	0xbf6e561f	-0.9310016
15	0xbca68db5	-0.020331243
16	0x3f148b31	0.5802489
17	0x3f0cd0ba	0.5500599
18	0x3e17329f	0.14765404
19	0x3e42212e	0.1895797
20	0x3bf8f3d3	0.0075974255
21	0xbe55fbcc	-0.20896834
22	0x3dfaf8d2	0.1225449
23	0xbe0f2dbd	-0.13982292
24	0x3c182d20	0.009288102
25	0xbd7dd8f4	-0.06197448
26	0x3e80138f	0.25014922
27	0x3c1d7c91	0.0096122185
28	0xbdedd8d1	-0.1161362
29	0xbdaab344	-0.083349735
30	0xbbe48e20	-0.0069749504
31	0xbcad229c	-0.021134667
32	0xbbd083c5	-0.0063633644
33	0x3d8b8d00	0.06814003
34	0xbdd8ec8c	-0.10591993
35	0xbd92f3b2	-0.071753874
36	0xbdf6d3ae	-0.120520934
37	0x3e162031	0.14660718
38	0x3d70c94e	0.05878573
39	0xbd8935c4	-0.06699708
40	0x3ecbbed4	0.39794028
41	0x3db2f396	0.087378666
42	0x3dfa6de7	0.122279935
43	0x3deaeb7d	0.11470697
44	0x3d53d1f7	0.05171391
45	0x3d3a4328	0.0454742
46	0xbea8f3d3	-0.32998523
47	0xbe2876cf	-0.16451572
48	0xbd7e09eb	-0.062021177
49	0x3dfd9869	0.123825856
50	0x3cc4426c	0.023957454
51	0x3e27e490	0.16395783
52	0xbd8d1427	-0.068886094
53	0xbe8164da	-0.25272256
54	0x3cdc2ffc	0.02687835
55	0x3e9dea81	0.30842975
56	0xba851a68	-0.0010154964
57	0xbd0017af	-0.031272586
58	0x3d025c21	0.031826142
59	0xbf1aff76	-0.6054605
60	0x3e8a631f	0.27028748
61	0x3e608bb9	0.219283
62	0xbdaa00df	-0.083009474
63	0xbd706ff6	-0.058700524
64	0xbd2625c4	-0.04056336
65	0x3cd9f88e	0.026607778
66	0xbb5fa640	-0.0034126192
67	0xbe039143	-0.12848382
68	0xbe89a12b	-0.26880774
69	0x3e8cec89	0.27524212
70	0x3e874623	0.26420698
71	0x3dd3bba2	0.103385225
72	0xbe06d518	-0.13167226
73	0x3e99fb1c	0.30074394
74	0xbe184ff7	-0.14874254
75	0x3e6bae87	0.23015796
76	0xbd897958	-0.067125976
77	0x3c6ee5c9	0.014581152
78	0x3e6d467f	0.23171423
79	0x3e955b22	0.2917109
80	0x3cbf5990	0.023358136
81	0xbe6f7bca	-0.23387066
82	0x3eb2483b	0.34820732
83	0xbea8d77f	-0.3297691
84	0x3e185cf1	0.14879204
85	0xbd9811b9	-0.07425255
86	0x3e8c50bf	0.27405354
87	0x3e1d1faa	0.1534411
88	0x3c248f03	0.010043862
89	0xbcabab67	-0.020955754
90	0x3ebc94c5	0.36832252
91	0x3e016f57	0.12640129
92	0xbcf25ec5	-0.029586205
93	0x3cf999b7	0.030468805
94	0x3d18f1ce	0.037339978
95	0x3cd0af63	0.025474256
96	0x3beb2115	0.0071755745
97	0xbdd4a6e6	-0.10383396
98	0xbd85c050	-0.06530821
99	0x3d152b25	0.0364181
100	0xbefc22fd	-0.49245444
101	0xbe07d291	-0.13263918
102	0x3bcd1ab8	0.0062592886
103	0xbdb6b71c	-0.08921644
104	0x3e37455d	0.17897554
105	0xbcf72f75	-0.030173996
106	0x3e1aa8f2	0.1510351
107	0x3e8a2b3a	0.26986104
108	0xbe2b6559	-0.1673788
109	0xbf035c73	-0.5131294
110	0xbe241879	-0.1602496
111	0x3e1f29f6	0.1554335
112	0x3f148b30	0.58024883
113	0x3e8eb6e3	0.27873906
114	0x3d9be841	0.07612658
115	0x3dea4073	0.11438074
116	0x3aa78f34	0.0012783767
117	0x3e82758e	0.25480312
118	0xbd304d11	-0.043042246
119	0x3ce2ca3f	0.02768433
120	0x3b79bfb8	0.0038108658
121	0xbe8be753	-0.27324924
122	0x3db48998	0.088153064
123	0x3e573cf7	0.2101935
124	0xbd729db4	-0.05923243
125	0x3db94ae1	0.09047485
126	0xbe294099	-0.16528548
127	0xbecae573	-0.3962818
128	0x3d034b44	0.0320542
129	0x3dee43bd	0.11634014
130	0xbe8e0fe7	-0.27746508
131	0xbcfc5eeb	-0.03080698
132	0x3ebf02fe	0.3730697
133	0x3ddda6f1	0.10822857
134	0x3e38b494	0.18037635
135	0x3dc3e1b9	0.095645376
136	0x3ec5d761	0.38640884
137	0x3ca5bf7f	0.020232914
138	0xbcff5480	-0.031168222
139	0x3e26c130	0.16284633
140	0x3e8261b7	0.25465176
141	0x3d8ab3da	0.06772585
142	0x3d44c206	0.048036598
143	0x3d4d9a1e	0.050195806
144	0x3d6547c8	0.05597666
145	0x3dea2b23	0.11434009
146	0x3b026521	0.0019896703
147	0x3eece888	0.46271157
148	0xbe2b0438	-0.16700828
149	0xbe7eed6f	-0.24895261
150	0x3e6ce348	0.23133576
151	0xbf2f80bd	-0.68555814
152	0x3ecf7639	0.40519884
153	0x3e257871	0.16159226
154	0xbeb98784	-0.36236203
155	0x3de080d0	0.10962069
156	0xbdacd425	-0.08438901
157	0x3f1df30b	0.6169898
158	0xbc2d4ed9	-0.010577881
159	0xbd78964c	-0.06069021
160	0xbdb3e967	-0.08784752
161	0xbe74df25	-0.23913248
162	0xbe0ba154	-0.1363576
163	0x3e4ee0a4	0.20202881
164	0x3d19cc26	0.037548207
165	0x3e32940c	0.17439288
166	0x3f15457f	0.5830917
167	0xbeb5f3e7	-0.35537645
168	0xbe9d8639	-0.30766466
169	0xbe464cac	-0.19365185
170	0xbd52a1cd	-0.051423836
171	0xbd18c6be	-0.03729891
172	0x3cfffe40	0.031249166
173	0x3c2cf41b	0.010556246
174	0xbdc93038	-0.0982365
175	0xbe4b6fe0	-0.19866896
176	0xbd068413	-0.0328408
177	0xbb6cb8ff	-0.0036121008
178	0x3e5ab5ad	0.21358366
179	0x3e05bc91	0.13060214
180	0x3d9992fb	0.074987374
181	0x3e0399ff	0.12851714
182	0x3d6f3e05	0.058408756
183	0x3eaeddd8	0.34153628
184	0x3e838ab4	0.2569176
185	0xbe6b0b40	-0.2295351
186	0xbce7c8ee	-0.028294053
187	0xbf07b437	-0.5300936
188	0x3daeca06	0.08534627
189	0x3e19daff	0.15024947
190	0xbe8e9e98	-0.27855372
191	0x3b9f77d1	0.004866578
192	0x3f2421d3	0.6411411
193	0xbefc586b	-0.49286208
194	0x3e8463ec	0.25857484
195	0x3d4894fd	0.04897021
196	0xbee11caf	-0.43967196
197	0x3e54fd58	0.20799768
198	0xbdf7a371	-0.12091721
199	0xbc977112	-0.018486533
200	0x3d6a4652	0.05719597
201	0xbeac7e7b	-0.33690247
202	0xbd1815b8	-0.037130088
203	0xbdc2d8c3	-0.09514
204	0x3e677b0a	0.2260553
205	0x3e5e81a3	0.2172914
206	0x3d92c845	0.07167105
207	0x3e45d37a	0.19318953
208	0xbed7d9c7	-0.42158338
209	0xbbf7ce7d	-0.007562457
210	0xbea792a2	-0.3272906
211	0xbd5b192d	-0.053490806
212	0x3e5fd946	0.21860227
213	0x3d9cecf2	0.07662381
214	0x3e95fd87	0.2929499
215	0xbcf5711c	-0.029961161
216	0xbdd7df8f	-0.10540687
217	0x3d9d5243	0.07681706
218	0x3c31861b	0.010835196
219	0x3d84cb94	0.06484142
220	0x3d2a6596	0.041600786
221	0x3e917294	0.2840773
222	0xbe214588	-0.1574918
223	0xbe2f12fd	-0.17097087
224	0xbe7879d6	-0.24265227
225	0x3d3ab40c	0.045581862
226	0x3ea1cb6d	0.31600514
227	0xbd5679c8	-0.052362233
228	0x3c249fa4	0.010047827
229	0xbeeb4b0f	-0.45955703
230	0xbdb4d87d	-0.08830354
231	0x3e37ddb2	0.17955664
232	0x3e9c22fb	0.30495438
233	0xbe06ed48	-0.13176453
234	0x3e2dbd37	0.16966711
235	0x3d53f013	0.051742624
236	0xbd9b338a	-0.0757819
237	0x3e8fc745	0.28081718
238	0x3d60f30e	0.054919295
239	0x3d4d249b	0.050083738
240	0xbda3cea2	-0.079983965
241	0xbbb10b6a	-0.005402972
242	0x3ca7fcea	0.020506341
243	0xbda6afba	-0.08138986
244	0xbe767d16	-0.24071154
245	0xbdbb4e54	-0.09145799
246	0x3a848a77	0.0010112067
247	0xbf0a25aa	-0.5396372
248	0x3dcad927	0.099047
249	0x3b632fef	0.0034666022
250	0xbe3aa759	-0.182279
251	0x3d9d4f6d	0.07681165
252	0x3d2075f2	0.03917498
253	0x3d64bd58	0.055844635
254	0x3d8f66bf	0.07002019
255	0xbdd3781d	-0.10325644

model.cnn.3.net.2.bias f4 [32]
0	0x3eab1c8c	0.33420217
1	0xbea8503b	-0.3287371
2	0x3e09398c	0.13400859
3	0x3db1e4ed	0.08686242
4	0x3e1a858b	0.15090005
5	0x3dd9ca8c	0.10634336
6	0xbd829a98	-0.06377143
7	0x3e96ede0	0.2947836
8	0xbe827e0f	-0.254868
9	0x3e7b1a99	0.24521865
10	0x3ea3b110	0.31971025
11	0x3c3425a0	0.010995299
12	0x3e217267	0.15766297
13	0x3d1577f1	0.03649134
14	0x3e108670	0.14113784
15	0x3d94f514	0.072733074
16	0xbe72a28c	-0.23694819
17	0xbe3e2eac	-0.18572491
18	0x3d913aa5	0.07091264
19	0x3e899dca	0.26878196
20	0xbe53dbf0	-0.20689368
21	0xbe8a6978	-0.2703359
22	0xbe16cd43	-0.14726739
23	0xbe000be9	-0.12504543
24	0x3e28ebfa	0.16496268
25	0x3e052fb2	0.13006476
26	0xbdc62d42	-0.09676601
27	0xbccb5422	-0.024820391
28	0xbe37b8fb	-0.17941658
29	0x3cc44f1c	0.023963504
30	0xbe0fcff2	-0.14044169
31	0xbea4020f	-0.3203282

model.cnn.3.net.2.weight f4 [32, 32, 1, 1]
0	0x3d301333	0.04298706
1	0xbed6f907	-0.41986868
2	0x3e878a97	0.26472923
3	0xbde39eba	-0.11114259
4	0x3eb6a3a6	0.3567173
5	0x3e850406	0.25979632
6	0xbe49ff6d	-0.19726343
7	0xbe008c26	-0.12553462
8	0xbddd084f	-0.107926
9	0xbe6dcb0b	-0.23221986
10	0x3e7f1609	0.2491075
11	0xbe658911	-0.22415568
12	0xbe2968a9	-0.16543831
13	0x3ec85a58	0.39131427
14	0x3ea01d55	0.3127238
15	0xbe8fcc95	-0.2808577
16	0x3e34d83c	0.17660612
17	0xbc543823	-0.012952837
18	0x3e7769c0	0.24161434
19	0x3da736e2	0.08164765
20	0x3e791a7f	0.24326514
21	0xbe8b933d	-0.2726077
22	0xbe947a72	-0.28999668
23	0xbeb8a9a6	-0.3606693
24	0xbeb5c219	-0.35499647
25	0xbdd54c60	-0.10414958
26	0x3e8a75f3	0.27043113
27	0xbd8bbbb4	-0.06822911
28	0xbe1f9df2	-0.15587595
29	0xbe3dd459	-0.18538035
30	0xbe2679d8	-0.16257417
31	0x3dc5211f	0.09625458
32	0xbe1caa4b	-0.15299337
33	0xbe05e391	-0.13075091
34	0x3e00e029	0.1258551
35	0xbd1bfa41	-0.038080458
36	0x3e25e405	0.16200264
37	0x3e5511f7	0.20807634
38	0xbad86bc7	-0.0016511612
39	0xbc023ee3	-0.007949564
40	0xbe281db1	-0.16417576
41	0xbf103ce7	-0.5634293
42	0x3e36c384	0.17848021
43	0x3e095b8f	0.13413833
44	0xbe0c2e90	-0.13689637
45	0x3e880823	0.26568708
46	0x3e0611f5	0.13092788
47	0xbc23d4e6	-0.009999489
48	0x3e5c7763	0.21529917
49	0xbc320ddc	-0.010867562
50	0xbec3d9c3	-0.38252077
51	0x3d2858fc	0.041100487
52	0x3f2864af	0.6577863
53	0xbd01d6a2	-0.03169883
54	0xbe2a312a	-0.16620317
55	0xbe23a68a	-0.15981498
56	0xbc839093	-0.01606015
57	0x3d3b3fb0	0.045715034
58	0xbeb11eaa	-0.34593707
59	0x3d01df6e	0.03170722
60	0x3d526b9f	0.051372167
61	0x3ead7d4c	0.33884656
62	0x3d8eab41	0.06966258
63	0x3e0af145	0.135686
64	0x3dfffe74	0.12499705
65	0xbd89ec30	-0.06734502
66	0xbeb43c18	-0.35202098
67	0x3d2d6c93	0.042339873
68	0xbe3ce0cf	-0.18445133
69	0x3e366a00	0.17813873
70	0x3e2d9d96	0.16954646
71	0x3e7e7b5b	0.24851744
72	0xbe1b5f35	-0.15173037
73	0x3d7e4895	0.06208094
74	0x3e729d0a	0.23692718
75	0x3cadebe6	0.02123065
76	0xbd371f9c	-0.04470788
77	0x3f3d104a	0.7385298
78	0xbd28c31a	-0.04120169
79	0x3eb23a96	0.34810323
80	0x3da335a9	0.07969219
81	0x3d3703a4	0.044681206
82	0xbe723c35	-0.2365578
83	0xbeecf540	-0.4628086
84	0x3e970e6c	0.2950319
85	0x3e326fc6	0.1742545
86	0xbe6aebbd	-0.2294149
87	0xbda26e8f	-0.07931244
88	0xbda280de	-0.07934736
89	0x3e988099	0.29785612
90	0x3c68318b	0.014171968
91	0x3de78ec8	0.1130653
92	0xbd91d6cf	-0.071210496
93	0xbdbeeca2	-0.09322478
94	0x3e95e09f	0.29272935
95	0xbe299034	-0.16558915
96	0xbe4ea006	-0.20178232
97	0x3e90c6d1	0.28276685
98	0xbefaa8cc	-0.48956907
99	0xbd18c223	-0.03729452
100	0x3e860370	0.26174498
101	0xbab7463b	-0.0013982722
102	0x3f1881e9	0.5957323
103	0xbd446a87	-0.047953155
104	0xbc0d019f	-0.0086063435
105	0xbde52930	-0.111894965
106	0xbed5a688	-0.41728616
107	0xbdfbc146	-0.12292723
108	0xbcd6de3d	-0.026229018
109	0xbed2aa51	-0.41145566
110	0xbf131f36	-0.574695
111	0xbf10037b	-0.5625531
112	0x3e5d665c	0.21621078
113	0xbe02e39c	-0.12782139
114	0x3db2ab4a	0.08724077
115	0xbe833fa0	-0.2563448
116	0x3e478370	0.19483733
117	0x3e252df2	0.16130808
118	0xbe4c4c9f	-0.19951104
119	0xbe67387e	-0.22580144
120	0x3c11899f	0.008882909
121	0x3ead89f6	0.33894318
122	0xbd398b91	-0.045299117
123	0xbdf1ebfa	-0.11812587
124	0xbe47636a	-0.19471517
125	0x3c0cb91d	0.008589056
126	0x3ee95c96	0.4557845
127	0xbef4ad4a	-0.4778846
128	0x3d4eef6f	0.05052131
129	0x3ba22132	0.004947805
130	0x3e4d15b5	0.20027812
131	0x3d801a23	0.06254985
132	0x3ebaf24f	0.36512992
133	0xbd3baef4	-0.045821145
134	0xbec87318	-0.3915031
135	0xbe800bea	-0.2500909
136	0x3e72b720	0.23702669
137	0x3e1b491a	0.15164605
138	0xbf363dc2	-0.71187985
139	0xbe3d3a9a	-0.18479386
140	0x3d80feb1	0.062985785
141	0x3eba03df	0.36331078
142	0x3e219d8c	0.15782756
143	0xbf186f66	-0.5954498
144	0x3d697d6a	0.05700437
145	0xbe8ec59b	-0.27885136
146	0xbdbf17b1	-0.09330691
147	0xbd08d49f	-0.033405896
148	0x3ddd4c58	0.10805577
149	0xbea90f1b	-0.33019337
150	0x3dcbfd0d	0.09960375
151	0x3dc618f7	0.096727304
152	0xbd8337ae	-0.064071044
153	0xbec98df1	-0.39366105
154	0xbd236731	-0.039893333
155	0xbe281e7b	-0.16417877
156	0x3d9ddfa1	0.077086695
157	0x3e45eb43	0.19328026
158	0xbe91f7bf	-0.28509328
159	0x3e38ca0c	0.18045825
160	0x3dbeb7c9	0.09312398
161	0xbe2fa67e	-0.17153355
162	0x3e96e144	0.2946874
163	0xbdd02262	-0.10162808
164	0x3e2d1a74	0.16904622
165	0xbea55cc1	-0.32297328
166	0xbe828088	-0.25488687
167	0xbe30a863	-0.17251734
168	0x3e84ec74	0.2596165
169	0xbea3aa9c	-0.31966102
170	0xbd875dc8	-0.06609684
171	0xbe0bff7d	-0.1367168
172	0xbcccd70e	-0.02500489
173	0xbe8af75b	-0.27141842
174	0x3e14e050	0.14538693
175	0xbf4866ae	-0.78281677
176	0x3d307fe2	0.04309071
177	0xbe2d64fc	-0.16933054
178	0xbc9f8333	-0.01947174
179	0xbd10e678	-0.035376042
180	0x3e3e3be2	0.18577531
181	0x3c31fadf	0.010863035
182	0xbe712718	-0.2355007
183	0xbe41643d	-0.18885894
184	0x3e425690	0.18978333
185	0xbe848068	-0.25879216
186	0xbee99d67	-0.456279
187	0x3c5c6a08	0.013453014
188	0x3ed9eeec	0.42565095
189	0xbddf84c5	-0.10913996
190	0xbf02bfbb	-0.5107381
191	0x3ec7701c	0.3895272
192	0xbd990145	-0.07470945
193	0xbc21bbec	-0.009871464
194	0xbf121955	-0.57069904
195	0xbe5014cf	-0.20320438
196	0xbeba4428	-0.36380124
197	0xbdcae9fc	-0.0990791
198	0x3e864018	0.26220775
199	0xbf02f27a	-0.5115124
200	0xbc970b00	-0.018437862
201	0x3e10a274	0.14124471
202	0x3eb37b64	0.35055077
203	0x3e225291	0.15851809
204	0xbe11373e	-0.1418123
205	0x3e30603a	0.17224208
206	0xbe8c2084	-0.27368557
207	0xbee0bb54	-0.4389292
208	0x3e84bfb1	0.259275
209	0x3e34e58f	0.17665695
210	0x3eaedd62	0.34153277
211	0xbcbc1f4f	-0.022964148
212	0x3e303e51	0.17211272
213	0x3e019f29	0.12658371
214	0xbdfecfb3	-0.12441959
215	0xbe8f2d1f	-0.27964112
216	0x3e8aa1d3	0.27076587
217	0x3e8c1182	0.27357107
218	0xbe171beb	-0.14756744
219	0xbdac2185	-0.08404831
220	0xbe4086a3	-0.1880136
221	0xbbcf535a	-0.006327075
222	0x3e9096eb	0.2824014
223	0xbe393fc2	-0.18090728
224	0x3ea9aa85	0.3313791
225	0x3da8750c	0.0822545
226	0xbe1bf16d	-0.15228815
227	0x3de3654c	0.11103305
228	0xbebd51f3	-0.36976585
229	0xbe848ab0	-0.2588706
230	0xbe8fdd0e	-0.2809834
231	0xbcc23555	-0.023707071
232	0x3e247509	0.1606027
233	0x3e6e6b30	0.23283076
234	0xbde404c5	-0.11133722
235	0x3de40464	0.1113365
236	0x3e9d1d88	0.30686593
237	0xbf1f2b51	-0.6217547
238	0xbd8145ea	-0.06312163
239	0x3ef90138	0.48633742
240	0xbebb0a8d	-0.36531487
241	0x3f1a7a9e	0.6034335
242	0xbe669eef	-0.22521566
243	0xbe2e95aa	-0.1704928
244	0xbc4d5349	-0.012532064
245	0xbe7410d1	-0.2383454
246	0x3e3019c3	0.17197327
247	0xbe64ad84	-0.22331816
248	0xbe287150	-0.16449475
249	0x3e8f675e	0.2800855
250	0x3e84aca6	0.2591297
251	0x3c5d2bc2	0.013499202
252	0xbeab3d89	-0.33445385
253	0xbc0372ba	-0.008022958
254	0xbd1c5d65	-0.038175005
255	0x3e965d38	0.29367995

model.cnn.4.net.0.bias f4 [32]
0	0x3e27aca8	0.16374457
1	0x3d8434c1	0.064553745
2	0x3dc45eec	0.095884174
3	0x3d5b1105	0.053483028
4	0xbe1df1d5	-0.15424283
5	0x3e909d3b	0.28244957
6	0xbd37296c	-0.044717237
7	0xbc8b2c40	-0.016988873
8	0x3e0eaa38	0.13932121
9	0x3f0d2365	0.5513213
10	0x3c8e07cb	0.0173377
11	0xbe0beb35	-0.13663943
12	0xbd48fe89	-0.04907087
13	0x3c756f77	0.014980189
14	0xbdcaaeaf	-0.098965995
15	0x3ec5babf	0.38619038
16	0xbe8a6efe	-0.27037805
17	0x3e852f5a	0.2601269
18	0x3efd31a3	0.49451932
19	0xbe98adf6	-0.29820222
20	0x3e27be15	0.16381104
21	0x3e916317	0.28395912
22	0xbec1be00	-0.3784027
23	0x3e622617	0.22084843
24	0x3f032217	0.5122389
25	0x3d5b7028	0.053573757
26	0x3edbc571	0.42924073
27	0x3ea5c1d7	0.3237445
28	0xbd474788	-0.048652202
29	0x3d43bfde	0.0477904
30	0x3eb70a51	0.35750058
31	0x3ef23847	0.4730856

model.cnn.4.net.0.weight f4 [32, 8, 3, 3]
0	0x3df8073e	0.12110756
1	0xbecc61c2	-0.39918333
2	0x3d5839bf	0.052789446
3	0xbe867fff	-0.26269528
4	0x3edd0bcd	0.43173066
5	0x3e9a74cb	0.3016723
6	0x3df08977	0.11744969
7	0xbe7c65c5	-0.24648197
8	0x3e7f7baa	0.24949518
9	0xbe5b4088	-0.21411335
10	0x3e87ae5c	0.26500213
11	0x3ce9055e	0.028444942
12	0x3eb31499	0.34976652
13	0x3c96482b	0.01834496
14	0xbe62f815	-0.22164948
15	0xbdf02a32	-0.11726798
16	0xbeaff404	-0.34365857
17	0x3e956c32	0.2918411
18	0xbc814c78	-0.015783533
19	0x3e0dcf7a	0.13848677
20	0xbe365172	-0.17804506
21	0x3d63b5e2	0.05559338
22	0xbe732f2c	-0.23748463
23	0xbddd6ce1	-0.10811783
24	0xbdf9f0ce	-0.12204133
25	0xbde94f2c	-0.11392054
26	0x3dd119a4	0.10209969
27	0xbdcd89cf	-0.100360505
28	0xbe3e6c39	-0.18595971
29	0xbc933256	-0.017968338
30	0xbe460ce9	-0.19340862
31	0xbe7328c9	-0.23746027
32	0x3e497d1f	0.19676636
33	0xbe08cc53	-0.13359194
34	0x3c9a3501	0.018824102
35	0xbe8825d2	-0.26591355
36	0x3e9f6a06	0.31135577
37	0x3de0e330	0.109808326
38	0x3cdfd98c	0.027325414
39	0x3e1d5b73	0.15366916
40	0xbeb63ac2	-0.35591704
41	0x3cf44814	0.029819526
42	0xbe2e4f49	-0.17022432
43	0x3e2f722d	0.17133398
44	0x3e252354	0.16126758
45	0x3e2b6e6d	0.16741343
46	0x3dbe844e	0.09302579
47	0x3d653641	0.055959944
48	0xbe3b99b5	-0.18320353
49	0x3e902c87	0.28158972
50	0x3e0523dd	0.13001962
51	0x3dc0ebe3	0.09419992
52	0x3ea18b11	0.31551412
53	0xbe0db971	-0.13840272
54	0x3e88e602	0.26737982
55	0xbef322f0	-0.47487593
56	0xbe193334	-0.14960939
57	0xbe5d63b6	-0.21620068
58	0x3e5a608c	0.21325892
59	0xbe9c770a	-0.3055957
60	0xbe80d56f	-0.25162837
61	0xbe10a6f0	-0.14126182
62	0x3d9861b8	0.07440513
63	0x3da02aad	0.0782064
64	0x3d91f81c	0.07127401
65	0xbd542a90	-0.051798403
66	0xbe47646e	-0.19471905
67	0xbe9722e2	-0.295188
68	0xbc2261ca	-0.00991101
69	0xbe4c655a	-0.19960538
70	0xbe549eb2	-0.20763662
71	0x3e8528f0	0.26007795
72	0x3cf5d49f	0.030008612
73	0xbc637e2c	-0.013885062
74	0xbd800de1	-0.06252647
75	0xbd80cee5	-0.06289462
76	0xbd357919	-0.04430494
77	0x3de11ba4	0.109916
78	0x3cc253a8	0.023721531
79	0x3e2bf028	0.16790831
80	0x3e0c9e32	0.13732222
81	0x3d671b60	0.05642259
82	0xbe7a0426	-0.24415645
83	0x3e859d27	0.2609646
84	0xbdd1737c	-0.10227105
85	0xbf02c6ca	-0.5108458
86	0x3ee3a5b7	0.44462368
87	0xbd1c5064	-0.038162604
88	0x3df4c4ed	0.11951623
89	0xbde0bbe2	-0.10973336
90	0x3e22f165	0.15912397
91	0xbddbd9b7	-0.10734885
92	0x3e3bc04e	0.18335077
93	0x3e9a432e	0.3012938
94	0x3c8fed3b	0.017569175
95	0x3ea341cd	0.3188614
96	0xbb3e5127	-0.002904007
97	0x3ded328e	0.11581908
98	0xbc097dd9	-0.008391821
99	0x3c147e23	0.009063276
100	0x3d825e9a	0.063657
101	0xbdee9514	-0.11649528
102	0xbd0aa77f	-0.033851143
103	0xbe707293	-0.23481207
104	0xbee011a5	-0.43763462
105	0xbd4b53b1	-0.04964036
106	0x3c083ce4	0.008315299
107	0x3db495c3	0.08817627
108	0xbde4d568	-0.111735165
109	0x3de9ea3d	0.114216305
110	0x3cc1b009	0.02364351
111	0xbd413b8e	-0.047175936
112	0x3ddec024	0.10876492
113	0xbbafc74c	-0.005364334
114	0x3e01bc93	0.12669592
115	0xbcd8a079	-0.026443707
116	0xbe8186d1	-0.2529817
117	0x3c3e77af	0.0116252145
118	0xbe6c7286	-0.23090562
119	0xbd058338	-0.032595843
120	0x3e0be7c1	0.13662626
121	0xbf192937	-0.59828514
122	0xbde9ae9d	-0.11410258
123	0x3d1442da	0.036196567
124	0xbe204b57	-0.1565374
125	0x3db014fe	0.08597754
126	0xbd8a61e9	-0.06756956
127	0x3e2e943a	0.17048731
128	0x3e0aaae1	0.13541748
129	0xbe645ade	-0.22300288
130	0xbe499ffb	-0.19689934
131	0x3eaf2e99	0.3421524
132	0x3e43d119	0.19122733
133	0x3c1ac58d	0.009446514
134	0xbd1a7e69	-0.03771821
135	0x3d307572	0.043080755
136	0x3cbfae93	0.023398673
137	0x3d3ecd8d	0.046582747
138	0x3e876435	0.2644364
139	0x3dc91a70	0.09819496
140	0xbe884512	-0.26615196
141	0x3e38f092	0.1806052
142	0xbd370818	-0.044685453
143	0xbe4a0339	-0.19727792
144	0xbdf83252	-0.12118973
145	0x3ddba65d	0.10725091
146	0x3c980232	0.018555734
147	0x3de9e802	0.11421205
148	0xbf03cdc7	-0.51485866
149	0x3f2f754f	0.68538374
150	0xbe34fdf0	-0.17674994
151	0xbdcda514	-0.10041252
152	0x3e05a472	0.13051012
153	0xbdaac085	-0.083375014
154	0xbd8e34b7	-0.06943648
155	0x3e0bee43	0.13665108
156	0xbdc5444d	-0.09632168
157	0x3f0d80bc	0.5527456
158	0xbe6e1e19	-0.23253669
159	0xbccb7dd5	-0.024840275
160	0xbc35e3c9	-0.0111016715
161	0x3d6f16f7	0.05837151
162	0x3e4bee2e	0.19915077
163	0xbe644ce9	-0.22294964
164	0xbdad9f5f	-0.08477663
165	0xbe8f509f	-0.27991197
166	0x3c1b07e7	0.009462333
167	0xbd6d45ab	-0.05792777
168	0x3e30b988	0.17258275
169	0xbca7faf1	-0.0205054
170	0xbdcff50e	-0.10154162
171	0x3d5da219	0.054109666
172	0x3cde0202	0.027100567
173	0x3dba3846	0.090927646
174	0x3e252d32	0.16130522
175	0xbeab6a56	-0.33479565
176	0x3f06c851	0.5264941
177	0xbd39a337	-0.04532167
178	0x3d7e194b	0.06203584
179	0x3d9cf78d	0.07664404
180	0x3d6854e9	0.0567216
181	0x3b7b328d	0.003832969
182	0xbe23544f	-0.1595013
183	0x3c77a0bb	0.015114005
184	0x3e8ff5c0	0.2811718
185	0x3dc88056	0.09790103
186	0x3e75bf32	0.23998716
187	0x3e01934d	0.12653847
188	0xbe40a435	-0.1881264
189	0x3dd0b1fe	0.10190199
190	0xbe5315ca	-0.2061378
191	0x3c07785c	0.008268442
192	0x3e5dd04a	0.21661487
193	0xbedcbfda	-0.4311512
194	0x3e244db6	0.1604527
195	0x3d2dca99	0.04242954
196	0xbe0593c8	-0.13044655
197	0x3d5ad0e0	0.053421855
198	0xbe039d0d	-0.12852879
199	0x3c64637f	0.013939737
200	0xbe0c0c73	-0.13676624
201	0x3e9463bb	0.28982338
202	0x3e05cbb1	0.13065983
203	0xbe01b2cf	-0.12665866
204	0x3d09288e	0.03348594
205	0xbdb0bc4b	-0.08629664
206	0xbc5f1f7e	-0.013618348
207	0x3dde961e	0.10868476
208	0xbe31cd61	-0.17363502
209	0xbdb4cdb1	-0.08828295
210	0x3ea3affa	0.31970197
211	0xbe9decb1	-0.30844644
212	0xbe964eed	-0.2935709
213	0x3e209ed0	0.15685582
214	0xbda3e8ef	-0.08003413
215	0xbe9a02e4	-0.3008033
216	0xbd8418c4	-0.06450036
217	0xbe05dca6	-0.13072452
218	0xbcd26f4d	-0.025687838
219	0x3e35e988	0.17764866
220	0x3f320fd9	0.6955543
221	0xbefce946	-0.49396724
222	0xbdbb78e7	-0.0915392
223	0x3d81cdb3	0.06338062
224	0xbe308288	-0.17237294
225	0xbde53dc3	-0.11193421
226	0x3ec24aab	0.37947592
227	0xbe88f88d	-0.2675213
228	0xbefc7b88	-0.49312997
229	0x3f1b3dca	0.6064116
230	0x3e85bc01	0.26119998
231	0x3bae7994	0.005324552
232	0xbe1c8468	-0.15284884
233	0x3e579d85	0.21056183
234	0x3e3192b9	0.17341127
235	0xbc3f7a52	-0.011686878
236	0xbd78adab	-0.060712498
237	0xbeafd039	-0.3433855
238	0x3e85a5e6	0.26103133
239	0xbdcb3cf7	-0.099237375
240	0xbd1c2617	-0.038122263
241	0xbde190b8	-0.11013931
242	0x3e3d049a	0.18458787
243	0x3df6498a	0.12025745
244	0xbd7a0932	-0.061043926
245	0x3e0e15e7	0.13875543
246	0x3e272293	0.16321783
247	0x3ef91dd1	0.4865556
248	0xbe1b833d	-0.15186782
249	0x3dc5a197	0.096499614
250	0x3e8bd950	0.27314234
251	0xbc2928af	-0.010324641
252	0xbdca0f15	-0.09866158
253	0x3b5d2635	0.0033744697
254	0x3eb2aa63	0.3489562
255	0xbeae3385	-0.3402368

model.cnn.4.net.2.bias f4 [32]
0	0x3e377b1a	0.17918053
1	0xbd0770c7	-0.033066537
2	0xbdcc740e	-0.09983073
3	0xbd5addee	-0.053434305
4	0x3c10443e	0.008805333
5	0xbd6b2772	-0.057410665
6	0x3b0e6af5	0.0021731232
7	0x3e67093c	0.22562116
8	0xbd74aadc	-0.059733257
9	0x3e1a1708	0.15047848
10	0x3e35029b	0.17676775
11	0xbe320751	-0.17385603
12	0x3b925513	0.004465708
13	0xbe6b684f	-0.2298901
14	0xbea2e93b	-0.31818566
15	0x3df61a42	0.12016727
16	0x3e87a0d9	0.26489905
17	0x3d74eb60	0.059794784
18	0xbdb5f311	-0.08884252
19	0xbaf4d9c8	-0.0018680627
20	0xbdb5fc2f	-0.08885991
21	0x3d6a0d3c	0.057141528
22	0x3ce1e26a	0.027573783
23	0xbd895522	-0.06705691
24	0x3cd40290	0.025880128
25	0x3de817fa	0.11332698
26	0xbe22a679	-0.15883817
27	0x3c84cc4e	0.016210701
28	0x3deff4a9	0.11716587
29	0xbd0135a7	-0.031545307
30	0xbda7836e	-0.08179365
31	0xbd4dda05	-0.050256748
